
------> CNN - Classificação de Doenças de Cacau <-----------
_____________________________________________________________________
                                                           10/04/2020
CNN_1 - Configuração

Shape Treino: (3733, 150, 150, 3)
Shape Teste: (657, 150, 150, 3)

Sumário do Modelo:
_________________________________________________________________
Layer (type)                 Output Shape              Param #   
=================================================================
conv2d (Conv2D)              (None, 148, 148, 32)      896       
_________________________________________________________________
max_pooling2d (MaxPooling2D) (None, 74, 74, 32)        0         
_________________________________________________________________
conv2d_1 (Conv2D)            (None, 72, 72, 32)        9248      
_________________________________________________________________
max_pooling2d_1 (MaxPooling2 (None, 36, 36, 32)        0         
_________________________________________________________________
conv2d_2 (Conv2D)            (None, 34, 34, 64)        18496     
_________________________________________________________________
max_pooling2d_2 (MaxPooling2 (None, 17, 17, 64)        0         
_________________________________________________________________
conv2d_3 (Conv2D)            (None, 15, 15, 128)       73856     
_________________________________________________________________
max_pooling2d_3 (MaxPooling2 (None, 7, 7, 128)         0         
_________________________________________________________________
flatten (Flatten)            (None, 6272)              0         
_________________________________________________________________
dense (Dense)                (None, 64)                401472    
_________________________________________________________________
dropout (Dropout)            (None, 64)                0         
_________________________________________________________________
dense_1 (Dense)              (None, 3)                 195       
=================================================================
Total params: 504,163                                            
Trainable params: 504,163                                        
Non-trainable params: 0                                          

Histórico do Treinamento:
Epoch 1/30
62/62 [==============================] - 55s 842ms/step - loss: 0.7746 - accuracy: 0.6993 - val_loss: 0.5920 - val_accuracy: 0.7619
…
